…
epochs_completed";"metrics";"model";"loss_function";"optimizer";"learning_rate";"script";"start";"end";"completed";"output";"source_code";"context";"type"
"runs/2024-03-14T11-15-55Z";53,7522;5,776;31,9577;4,3338;64;32;16;8;0,2;0,3;0,2;0,1;64;50;17;"runs/2024-03-14T11-15-55Z/tfruns.d/metrics.json";"Model: ""sequential""
________________________________________________________________________________
 Layer (type)                       Output Shape                    Param #     
================================================================================
 dense_4 (Dense)                    (None, 64)                      1664        
 dropout_3 (Dropout)                (None, 64)                      0           
 dense_3 (Dense)                    (None, 32)                      2080        
 dropout_2 (Dropout)                (None, 32)                      0           
 dense_2 (Dense)                    (None, 16)                      528         
 dropout_1 (Dropout)                (None, 16)                      0           
 dense_1 (Dense)                    (None, 8)                       136         
 dropout (Dropout)                  (None, 8)                       0           
 dense (Dense)                      (None, 1)                       9           
================================================================================
Total params: 4417 (17.25 KB)
Trainable params: 4417 (17.25 KB)
Non-trainable params: 0 (0.00 Byte)
________________________________________________________________________________";"mse";"<keras.src.optimizers.rmsprop.RMSprop object at 0x7f9e58bd7ac0>";0,00100000004749745;"Experiment.R";2024-03-14 11:15:55.4153;2024-03-14 11:16:00.16218;TRUE;"
…
+     epochs = 50, batch_size = FLAGS$batch_size, validation_split = 0.2, 
+     callbacks = lis .... [TRUNCATED] ";"runs/2024-03-14T11-15-55Z/tfruns.d/source.tar.gz";"local";"training"
"runs/2024-03-14T11-15-44Z";52,1995;5,7086;32,6296;4,4137;32;32;16;8;0,2;0,3;0,2;0,1;64;50;20;"runs/2024-03-14T11-15-44Z/tfruns.d/metrics.json";"Model: ""sequential""
________________________________________________________________________________
 Layer (type)                       Output Shape                    Param #     
================================================================================
 dense_4 (Dense)                    (None, 32)                      832         
 dropout_3 (Dropout)                (None, 32)                      0           
 dense_3 (Dense)                    (None, 32)                      1056        
 dropout_2 (Dropout)                (None, 32)                      0           
 dense_2 (Dense)                    (None, 16)                      528         
 dropout_1 (Dropout)                (None, 16)                      0           
 dense_1 (Dense)                    (None, 8)                       136         
 dropout (Dropout)                  (None, 8)                       0           
 dense (Dense)                      (None, 1)                       9           
================================================================================
Total params: 2561 (10.00 KB)
Trainable params: 2561 (10.00 KB)
Non-trainable params: 0 (0.00 Byte)
________________________________________________________________________________";"mse";"<keras.src.optimizers.rmsprop.RMSprop object at 0x7f9e58ddf0a0>";0,00100000004749745;"Experiment.R";2024-03-14 11:15:45.01764;2024-03-14 11:15:55.00918;TRUE;"
…
+     epochs = 50, batch_size = FLAGS$batch_size, validation_split = 0.2, 
+     callbacks = lis .... [TRUNCATED] ";"runs/2024-03-14T11-15-44Z/tfruns.d/source.tar.gz";"local";"training"
"runs/2024-03-14T11-15-34Z";51,4083;5,6097;32,096;4,2552;64;16;16;8;0,2;0,3;0,2;0,1;64;50;21;"runs/2024-03-14T11-15-34Z/tfruns.d/metrics.json";"Model: ""sequential""
________________________________________________________________________________
 Layer (type)                       Output Shape                    Param #     
================================================================================
 dense_4 (Dense)                    (None, 64)                      1664        
 dropout_3 (Dropout)                (None, 64)                      0           
 dense_3 (Dense)                    (None, 16)                      1040        
 dropout_2 (Dropout)                (None, 16)                      0           
 dense_2 (Dense)                    (None, 16)                      272         
 dropout_1 (Dropout)                (None, 16)                      0           
 dense_1 (Dense)                    (None, 8)                       136         
 dropout (Dropout)                  (None, 8)                       0           
 dense (Dense)                      (None, 1)                       9           
================================================================================
Total params: 3121 (12.19 KB)
Trainable params: 3121 (12.19 KB)
Non-trainable params: 0 (0.00 Byte)
________________________________________________________________________________";"mse";"<keras.src.optimizers.rmsprop.RMSprop object at 0x7f9e5841f5e0>";0,00100000004749745;"Experiment.R";2024-03-14 11:15:34.49988;2024-03-14 11:15:44.61309;TRUE;"
…
+     epochs = 50, batch_size = FLAGS$batch_size, validation_split = 0.2, 
+     callbacks = lis .... [TRUNCATED] ";"runs/2024-03-14T11-15-34Z/tfruns.d/source.tar.gz";"local";"training"
"runs/2024-03-14T11-15-26Z";48,4694;5,4576;32,1589;4,3379;32;16;16;8;0,2;0,3;0,2;0,1;64;50;38;"runs/2024-03-14T11-15-26Z/tfruns.d/metrics.json";"Model: ""sequential""
________________________________________________________________________________
 Layer (type)                       Output Shape                    Param #     
================================================================================
 dense_4 (Dense)                    (None, 32)                      832         
 dropout_3 (Dropout)                (None, 32)                      0           
 dense_3 (Dense)                    (None, 16)                      528         
 dropout_2 (Dropout)                (None, 16)                      0           
 dense_2 (Dense)                    (None, 16)                      272         
 dropout_1 (Dropout)                (None, 16)                      0           
 dense_1 (Dense)                    (None, 8)                       136         
 dropout (Dropout)                  (None, 8)                       0           
 dense (Dense)                      (None, 1)                       9           
================================================================================
Total params: 1777 (6.94 KB)
Trainable params: 1777 (6.94 KB)
Non-trainable params: 0 (0.00 Byte)
________________________________________________________________________________";"mse";"<keras.src.optimizers.rmsprop.RMSprop object at 0x7f9e58ea1240>";0,00100000004749745;"Experiment.R";2024-03-14 11:15:26.61811;2024-03-14 11:15:34.22537;TRUE;"
…
+     epochs = 50, batch_size = FLAGS$batch_size, validation_split = 0.2, 
+     callbacks = lis .... [TRUNCATED] ";"runs/2024-03-14T11-15-26Z/tfruns.d/source.tar.gz";"local";"training"
"runs/2024-03-14T11-15-16Z";50,3313;5,5519;39,253;4,7224;64;32;8;8;0,2;0,3;0,2;0,1;64;50;25;"runs/2024-03-14T11-15-16Z/tfruns.d/metrics.json";"Model: ""sequential""
________________________________________________________________________________
 Layer (type)                       Output Shape                    Param #     
================================================================================
 dense_4 (Dense)                    (None, 64)                      1664        
 dropout_3 (Dropout)                (None, 64)                      0           
 dense_3 (Dense)                    (None, 32)                      2080        
 dropout_2 (Dropout)                (None, 32)                      0           
 dense_2 (Dense)                    (None, 8)                       264         
 dropout_1 (Dropout)                (None, 8)                       0           
 dense_1 (Dense)                    (None, 8)                       72          
 dropout (Dropout)                  (None, 8)                       0           
 dense (Dense)                      (None, 1)                       9           
================================================================================
Total params: 4089 (15.97 KB)
Trainable params: 4089 (15.97 KB)
Non-trainable params: 0 (0.00 Byte)
________________________________________________________________________________";"mse";"<keras.src.optimizers.rmsprop.RMSprop object at 0x7f9e591ab3a0>";0,00100000004749745;"Experiment.R";2024-03-14 11:15:16.76123;2024-03-14 11:15:26.3601;TRUE;"
…
+     epochs = 50, batch_size = FLAGS$batch_size, validation_split = 0.2, 
+     callbacks = lis .... [TRUNCATED] ";"runs/2024-03-14T11-15-16Z/tfruns.d/source.tar.gz";"local";"training"
"runs/2024-03-14T11-15-09Z";48,638;5,4668;32,7779;4,3576;32;32;8;8;0,2;0,3;0,2;0,1;64;50;31;"runs/2024-03-14T11-15-09Z/tfruns.d/metrics.json";"Model: ""sequential""
________________________________________________________________________________
 Layer (type)                       Output Shape                    Param #     
================================================================================
 dense_4 (Dense)                    (None, 32)                      832         
 dropout_3 (Dropout)                (None, 32)                      0           
 dense_3 (Dense)                    (None, 32)                      1056        
 dropout_2 (Dropout)                (None, 32)                      0           
 dense_2 (Dense)                    (None, 8)                       264         
 dropout_1 (Dropout)                (None, 8)                       0           
 dense_1 (Dense)                    (None, 8)                       72          
 dropout (Dropout)                  (None, 8)                       0           
 dense (Dense)                      (None, 1)                       9           
================================================================================
Total params: 2233 (8.72 KB)
Trainable params: 2233 (8.72 KB)
Non-trainable params: 0 (0.00 Byte)
________________________________________________________________________________";"mse";"<keras.src.optimizers.rmsprop.RMSprop object at 0x7f9e593dd870>";0,00100000004749745;"Experiment.R";2024-03-14 11:15:09.53691;2024-03-14 11:15:16.32416;TRUE;"
…
+     epochs = 50, batch_size = FLAGS$batch_size, validation_split = 0.2, 
+     callbacks = lis .... [TRUNCATED] ";"runs/2024-03-14T11-15-09Z/tfruns.d/source.tar.gz";"local";"training"
"runs/2024-03-14T11-15-02Z";51,3481;5,6706;36,2891;4,5405;64;16;8;8;0,2;0,3;0,2;0,1;64;50;26;"runs/2024-03-14T11-15-02Z/tfruns.d/metrics.json";"Model: ""sequential""
________________________________________________________________________________
 Layer (type)                       Output Shape                    Param #     
================================================================================
 dense_4 (Dense)                    (None, 64)                      1664        
 dropout_3 (Dropout)                (None, 64)                      0           
 dense_3 (Dense)                    (None, 16)                      1040        
 dropout_2 (Dropout)                (None, 16)                      0           
 dense_2 (Dense)                    (None, 8)                       136         
 dropout_1 (Dropout)                (None, 8)                       0           
 dense_1 (Dense)                    (None, 8)                       72          
 dropout (Dropout)                  (None, 8)                       0           
 dense (Dense)                      (None, 1)                       9           
================================================================================
Total params: 2921 (11.41 KB)
Trainable params: 2921 (11.41 KB)
Non-trainable params: 0 (0.00 Byte)
________________________________________________________________________________";"mse";"<keras.src.optimizers.rmsprop.RMSprop object at 0x7f9e59427010>";0,00100000004749745;"Experiment.R";2024-03-14 11:15:02.95469;2024-03-14 11:15:09.26488;TRUE;"
…
+     epochs = 50, batch_size = FLAGS$batch_size, validation_split = 0.2, 
+     callbacks = lis .... [TRUNCATED] ";"runs/2024-03-14T11-15-02Z/tfruns.d/source.tar.gz";"local";"training"
"runs/2024-03-14T11-14-56Z";53,5622;5,8004;31,898;4,3055;32;16;8;8;0,2;0,3;0,2;0,1;64;50;30;"runs/2024-03-14T11-14-56Z/tfruns.d/metrics.json";"Model: ""sequential""
________________________________________________________________________________
 Layer (type)                       Output Shape                    Param #     
================================================================================
 dense_4 (Dense)                    (None, 32)                      832         
 dropout_3 (Dropout)                (None, 32)                      0           
 dense_3 (Dense)                    (None, 16)                      528         
 dropout_2 (Dropout)                (None, 16)                      0           
 dense_2 (Dense)                    (None, 8)                       136         
 dropout_1 (Dropout)                (None, 8)                       0           
 dense_1 (Dense)                    (None, 8)                       72          
 dropout (Dropout)                  (None, 8)                       0           
 dense (Dense)                      (None, 1)                       9           
================================================================================
Total params: 1577 (6.16 KB)
Trainable params: 1577 (6.16 KB)
Non-trainable params: 0 (0.00 Byte)
________________________________________________________________________________";"mse";"<keras.src.optimizers.rmsprop.RMSprop object at 0x7f9e5964bbe0>";0,00100000004749745;"Experiment.R";2024-03-14 11:14:56.98171;2024-03-14 11:15:02.69622;TRUE;"
…
+     epochs = 50, batch_size = FLAGS$batch_size, validation_split = 0.2, 
+     callbacks = lis .... [TRUNCATED] ";"runs/2024-03-14T11-14-56Z/tfruns.d/source.tar.gz";"local";"training"
"runs/2024-03-14T11-14-50Z";53,8515;5,7191;32,7022;4,4132;64;32;16;4;0,2;0,3;0,2;0,1;64;50;23;"runs/2024-03-14T11-14-50Z/tfruns.d/metrics.json";"Model: ""sequential""
________________________________________________________________________________
 Layer (type)                       Output Shape                    Param #     
================================================================================
 dense_4 (Dense)                    (None, 64)                      1664        
 dropout_3 (Dropout)                (None, 64)                      0           
 dense_3 (Dense)                    (None, 32)                      2080        
 dropout_2 (Dropout)                (None, 32)                      0           
 dense_2 (Dense)                    (None, 16)                      528         
 dropout_1 (Dropout)                (None, 16)                      0           
 dense_1 (Dense)                    (None, 4)                       68          
 dropout (Dropout)                  (None, 4)                       0           
 dense (Dense)                      (None, 1)                       5           
================================================================================
Total params: 4345 (16.97 KB)
Trainable params: 4345 (16.97 KB)
Non-trainable params: 0 (0.00 Byte)
________________________________________________________________________________";"mse";"<keras.src.optimizers.rmsprop.RMSprop object at 0x7f9e58fd4e80>";0,00100000004749745;"Experiment.R";2024-03-14 11:14:51.19222;2024-03-14 11:14:56.70907;TRUE;"
…
+     epochs = 50, batch_size = FLAGS$batch_size, validation_split = 0.2, 
+     callbacks = lis .... [TRUNCATED] ";"runs/2024-03-14T11-14-50Z/tfruns.d/source.tar.gz";"local";"training"
"runs/2024-03-14T11-14-45Z";52,9825;5,7152;31,4917;4,4004;32;32;16;4;0,2;0,3;0,2;0,1;64;50;20;"runs/2024-03-14T11-14-45Z/tfruns.d/metrics.json";"Model: ""sequential""
________________________________________________________________________________
 Layer (type)                       Output Shape                    Param #     
================================================================================
 dense_4 (Dense)                    (None, 32)                      832         
 dropout_3 (Dropout)                (None, 32)                      0           
 dense_3 (Dense)                    (None, 32)                      1056        
 dropout_2 (Dropout)                (None, 32)                      0           
 dense_2 (Dense)                    (None, 16)                      528         
 dropout_1 (Dropout)                (None, 16)                      0           
 dense_1 (Dense)                    (None, 4)                       68          
 dropout (Dropout)                  (None, 4)                       0           
 dense (Dense)                      (None, 1)                       5           
================================================================================
Total params: 2489 (9.72 KB)
Trainable params: 2489 (9.72 KB)
Non-trainable params: 0 (0.00 Byte)
________________________________________________________________________________";"mse";"<keras.src.optimizers.rmsprop.RMSprop object at 0x7f9e599cb8e0>";0,00100000004749745;"Experiment.R";2024-03-14 11:14:46.15567;2024-03-14 11:14:50.80312;TRUE;"
…
+     epochs = 50, batch_size = FLAGS$batch_size, validation_split = 0.2, 
+     callbacks = lis .... [TRUNCATED] ";"runs/2024-03-14T11-14-45Z/tfruns.d/source.tar.gz";"local";"training"
"runs/2024-03-14T11-14-34Z";52,1957;5,6641;33,1428;4,4104;64;16;16;4;0,2;0,3;0,2;0,1;64;50;29;"runs/2024-03-14T11-14-34Z/tfruns.d/metrics.json";"Model: ""sequential""
________________________________________________________________________________
 Layer (type)                       Output Shape                    Param #     
================================================================================
 dense_4 (Dense)                    (None, 64)                      1664        
 dropout_3 (Dropout)                (None, 64)                      0           
 dense_3 (Dense)                    (None, 16)                      1040        
 dropout_2 (Dropout)                (None, 16)                      0           
 dense_2 (Dense)                    (None, 16)                      272         
 dropout_1 (Dropout)                (None, 16)                      0           
 dense_1 (Dense)                    (None, 4)                       68          
 dropout (Dropout)                  (None, 4)                       0           
 dense (Dense)                      (None, 1)                       5           
================================================================================
Total params: 3049 (11.91 KB)
Trainable params: 3049 (11.91 KB)
Non-trainable params: 0 (0.00 Byte)
________________________________________________________________________________";"mse";"<keras.src.optimizers.rmsprop.RMSprop object at 0x7f9e59a2ce80>";0,00100000004749745;"Experiment.R";2024-03-14 11:14:35.12138;2024-03-14 11:14:45.88927;TRUE;"
…
+     epochs = 50, batch_size = FLAGS$batch_size, validation_split = 0.2, 
+     callbacks = lis .... [TRUNCATED] ";"runs/2024-03-14T11-14-34Z/tfruns.d/source.tar.gz";"local";"training"
"runs/2024-03-14T11-14-23Z";53,1766;5,7441;30,7931;4,2785;32;16;16;4;0,2;0,3;0,2;0,1;64;50;34;"runs/2024-03-14T11-14-23Z/tfruns.d/metrics.json";"Model: ""sequential""
________________________________________________________________________________
 Layer (type)                       Output Shape                    Param #     
================================================================================
 dense_4 (Dense)                    (None, 32)                      832         
 dropout_3 (Dropout)                (None, 32)                      0           
 dense_3 (Dense)                    (None, 16)                      528         
 dropout_2 (Dropout)                (None, 16)                      0           
 dense_2 (Dense)                    (None, 16)                      272         
 dropout_1 (Dropout)                (None, 16)                      0           
 dense_1 (Dense)                    (None, 4)                       68          
 dropout (Dropout)                  (None, 4)                       0           
 dense (Dense)                      (None, 1)                       5           
================================================================================
Total params: 1705 (6.66 KB)
Trainable params: 1705 (6.66 KB)
Non-trainable params: 0 (0.00 Byte)
________________________________________________________________________________";"mse";"<keras.src.optimizers.rmsprop.RMSprop object at 0x7f9e59c23f40>";0,00100000004749745;"Experiment.R";2024-03-14 11:14:23.42986;2024-03-14 11:14:34.87305;TRUE;"
…
+     epochs = 50, batch_size = FLAGS$batch_size, validation_split = 0.2, 
+     callbacks = lis .... [TRUNCATED] ";"runs/2024-03-14T11-14-23Z/tfruns.d/source.tar.gz";"local";"training"
"runs/2024-03-14T11-14-16Z";56,6077;5,9189;30,7704;4,221;64;32;8;4;0,2;0,3;0,2;0,1;64;50;33;"runs/2024-03-14T11-14-16Z/tfruns.d/metrics.json";"Model: ""sequential""
________________________________________________________________________________
 Layer (type)                       Output Shape                    Param #     
================================================================================
 dense_4 (Dense)                    (None, 64)                      1664        
 dropout_3 (Dropout)                (None, 64)                      0           
 dense_3 (Dense)                    (None, 32)                      2080        
 dropout_2 (Dropout)                (None, 32)                      0           
 dense_2 (Dense)                    (None, 8)                       264         
 dropout_1 (Dropout)                (None, 8)                       0           
 dense_1 (Dense)                    (None, 4)                       36          
 dropout (Dropout)                  (None, 4)                       0           
 dense (Dense)                      (None, 1)                       5           
================================================================================
Total params: 4049 (15.82 KB)
Trainable params: 4049 (15.82 KB)
Non-trainable params: 0 (0.00 Byte)
________________________________________________________________________________";"mse";"<keras.src.optimizers.rmsprop.RMSprop object at 0x7f9e59ea2050>";0,00100000004749745;"Experiment.R";2024-03-14 11:14:16.64439;2024-03-14 11:14:23.1627;TRUE;"
…
+     epochs = 50, batch_size = FLAGS$batch_size, validation_split = 0.2, 
+     callbacks = lis .... [TRUNCATED] ";"runs/2024-03-14T11-14-16Z/tfruns.d/source.tar.gz";"local";"training"
"runs/2024-03-14T11-14-08Z";67,6192;6,3197;31,7722;4,2078;32;32;8;4;0,2;0,3;0,2;0,1;64;50;33;"runs/2024-03-14T11-14-08Z/tfruns.d/metrics.json";"Model: ""sequential""
________________________________________________________________________________
 Layer (type)                       Output Shape                    Param #     
================================================================================
 dense_4 (Dense)                    (None, 32)                      832         
 dropout_3 (Dropout)                (None, 32)                      0           
 dense_3 (Dense)                    (None, 32)                      1056        
 dropout_2 (Dropout)                (None, 32)                      0           
 dense_2 (Dense)                    (None, 8)                       264         
 dropout_1 (Dropout)                (None, 8)                       0           
 dense_1 (Dense)                    (None, 4)                       36          
 dropout (Dropout)                  (None, 4)                       0           
 dense (Dense)                      (None, 1)                       5           
================================================================================
Total params: 2193 (8.57 KB)
Trainable params: 2193 (8.57 KB)
Non-trainable params: 0 (0.00 Byte)
________________________________________________________________________________";"mse";"<keras.src.optimizers.rmsprop.RMSprop object at 0x7f9e5a0e5480>";0,00100000004749745;"Experiment.R";2024-03-14 11:14:08.59359;2024-03-14 11:14:16.24011;TRUE;"
…
+     epochs = 50, batch_size = FLAGS$batch_size, validation_split = 0.2, 
+     callbacks = lis .... [TRUNCATED] ";"runs/2024-03-14T11-14-08Z/tfruns.d/source.tar.gz";"local";"training"
"runs/2024-03-14T11-14-02Z";59,7753;5,9716;41,788;4,8751;64;16;8;4;0,2;0,3;0,2;0,1;64;50;26;"runs/2024-03-14T11-14-02Z/tfruns.d/metrics.json";"Model: ""sequential""
________________________________________________________________________________
 Layer (type)                       Output Shape                    Param #     
================================================================================
 dense_4 (Dense)                    (None, 64)                      1664        
 dropout_3 (Dropout)                (None, 64)                      0           
 dense_3 (Dense)                    (None, 16)                      1040        
 dropout_2 (Dropout)                (None, 16)                      0           
 dense_2 (Dense)                    (None, 8)                       136         
 dropout_1 (Dropout)                (None, 8)                       0           
 dense_1 (Dense)                    (None, 4)                       36          
 dropout (Dropout)                  (None, 4)                       0           
 dense (Dense)                      (None, 1)                       5           
================================================================================
Total params: 2881 (11.25 KB)
Trainable params: 2881 (11.25 KB)
Non-trainable params: 0 (0.00 Byte)
________________________________________________________________________________";"mse";"<keras.src.optimizers.rmsprop.RMSprop object at 0x7f9e5a1ee770>";0,00100000004749745;"Experiment.R";2024-03-14 11:14:02.22494;2024-03-14 11:14:08.33794;TRUE;"
…
+     epochs = 50, batch_size = FLAGS$batch_size, validation_split = 0.2, 
+     callbacks = lis .... [TRUNCATED] ";"runs/2024-03-14T11-14-02Z/tfruns.d/source.tar.gz";"local";"training"
"runs/2024-03-14T11-13-53Z";61,5369;6,0393;32,446;4,2877;32;16;8;4;0,2;0,3;0,2;0,1;64;50;50;"runs/2024-03-14T11-13-53Z/tfruns.d/metrics.json";"Model: ""sequential""
________________________________________________________________________________
 Layer (type)                       Output Shape                    Param #     
================================================================================
 dense_4 (Dense)                    (None, 32)                      832         
 dropout_3 (Dropout)                (None, 32)                      0           
 dense_3 (Dense)                    (None, 16)                      528         
 dropout_2 (Dropout)                (None, 16)                      0           
 dense_2 (Dense)                    (None, 8)                       136         
 dropout_1 (Dropout)                (None, 8)                       0           
 dense_1 (Dense)                    (None, 4)                       36          
 dropout (Dropout)                  (None, 4)                       0           
 dense (Dense)                      (None, 1)                       5           
================================================================================
Total params: 1537 (6.00 KB)
Trainable params: 1537 (6.00 KB)
Non-trainable params: 0 (0.00 Byte)
________________________________________________________________________________";"mse";"<keras.src.optimizers.rmsprop.RMSprop object at 0x7f9e5a22b970>";0,00100000004749745;"Experiment.R";2024-03-14 11:13:53.29086;2024-03-14 11:14:01.97935;TRUE;"
…
