…
pochs_completed";"metrics";"model";"loss_function";"optimizer";"learning_rate";"script";"start";"end";"completed";"output";"source_code";"context";"type"
"runs/2024-03-14T13-14-39Z";15,3396;3,0632;14,6192;2,8868;64;32;16;8;0,2;0,3;0,2;0,1;64;50;37;"runs/2024-03-14T13-14-39Z/tfruns.d/metrics.json";"Model: ""sequential""
________________________________________________________________________________
 Layer (type)                       Output Shape                    Param #     
================================================================================
 dense_4 (Dense)                    (None, 64)                      1664        
 dropout_3 (Dropout)                (None, 64)                      0           
 dense_3 (Dense)                    (None, 32)                      2080        
 dropout_2 (Dropout)                (None, 32)                      0           
 dense_2 (Dense)                    (None, 16)                      528         
 dropout_1 (Dropout)                (None, 16)                      0           
 dense_1 (Dense)                    (None, 8)                       136         
 dropout (Dropout)                  (None, 8)                       0           
 dense (Dense)                      (None, 1)                       9           
================================================================================
Total params: 4417 (17.25 KB)
Trainable params: 4417 (17.25 KB)
Non-trainable params: 0 (0.00 Byte)
________________________________________________________________________________";"mse";"<keras.src.optimizers.rmsprop.RMSprop object at 0x7f9e5b8c6830>";0,00100000004749745;"Experiment.R";2024-03-14 13:14:40.4801;2024-03-14 13:14:45.92161;TRUE;"
…
+     epochs = 50, batch_size = FLAGS$batch_size, validation_split = 0.2, 
+     callbacks = lis .... [TRUNCATED] ";"runs/2024-03-14T13-14-39Z/tfruns.d/source.tar.gz";"local";"training"
"runs/2024-03-14T13-14-32Z";15,2048;3,0527;15,5266;3,0123;32;32;16;8;0,2;0,3;0,2;0,1;64;50;47;"runs/2024-03-14T13-14-32Z/tfruns.d/metrics.json";"Model: ""sequential""
________________________________________________________________________________
 Layer (type)                       Output Shape                    Param #     
================================================================================
 dense_4 (Dense)                    (None, 32)                      832         
 dropout_3 (Dropout)                (None, 32)                      0           
 dense_3 (Dense)                    (None, 32)                      1056        
 dropout_2 (Dropout)                (None, 32)                      0           
 dense_2 (Dense)                    (None, 16)                      528         
 dropout_1 (Dropout)                (None, 16)                      0           
 dense_1 (Dense)                    (None, 8)                       136         
 dropout (Dropout)                  (None, 8)                       0           
 dense (Dense)                      (None, 1)                       9           
================================================================================
Total params: 2561 (10.00 KB)
Trainable params: 2561 (10.00 KB)
Non-trainable params: 0 (0.00 Byte)
________________________________________________________________________________";"mse";"<keras.src.optimizers.rmsprop.RMSprop object at 0x7f9e5b3c0d90>";0,00100000004749745;"Experiment.R";2024-03-14 13:14:32.90881;2024-03-14 13:14:39.96003;TRUE;"
…
+     epochs = 50, batch_size = FLAGS$batch_size, validation_split = 0.2, 
+     callbacks = lis .... [TRUNCATED] ";"runs/2024-03-14T13-14-32Z/tfruns.d/source.tar.gz";"local";"training"
"runs/2024-03-14T13-14-26Z";16,5865;3,2321;16,1735;3,1397;64;16;16;8;0,2;0,3;0,2;0,1;64;50;35;"runs/2024-03-14T13-14-26Z/tfruns.d/metrics.json";"Model: ""sequential""
________________________________________________________________________________
 Layer (type)                       Output Shape                    Param #     
================================================================================
 dense_4 (Dense)                    (None, 64)                      1664        
 dropout_3 (Dropout)                (None, 64)                      0           
 dense_3 (Dense)                    (None, 16)                      1040        
 dropout_2 (Dropout)                (None, 16)                      0           
 dense_2 (Dense)                    (None, 16)                      272         
 dropout_1 (Dropout)                (None, 16)                      0           
 dense_1 (Dense)                    (None, 8)                       136         
 dropout (Dropout)                  (None, 8)                       0           
 dense (Dense)                      (None, 1)                       9           
================================================================================
Total params: 3121 (12.19 KB)
Trainable params: 3121 (12.19 KB)
Non-trainable params: 0 (0.00 Byte)
________________________________________________________________________________";"mse";"<keras.src.optimizers.rmsprop.RMSprop object at 0x7f9e5aceb2b0>";0,00100000004749745;"Experiment.R";2024-03-14 13:14:27.21199;2024-03-14 13:14:32.41022;TRUE;"
…
+     epochs = 50, batch_size = FLAGS$batch_size, validation_split = 0.2, 
+     callbacks = lis .... [TRUNCATED] ";"runs/2024-03-14T13-14-26Z/tfruns.d/source.tar.gz";"local";"training"
"runs/2024-03-14T13-14-20Z";17,8673;3,3641;14,948;2,9938;32;16;16;8;0,2;0,3;0,2;0,1;64;50;37;"runs/2024-03-14T13-14-20Z/tfruns.d/metrics.json";"Model: ""sequential""
________________________________________________________________________________
 Layer (type)                       Output Shape                    Param #     
================================================================================
 dense_4 (Dense)                    (None, 32)                      832         
 dropout_3 (Dropout)                (None, 32)                      0           
 dense_3 (Dense)                    (None, 16)                      528         
 dropout_2 (Dropout)                (None, 16)                      0           
 dense_2 (Dense)                    (None, 16)                      272         
 dropout_1 (Dropout)                (None, 16)                      0           
 dense_1 (Dense)                    (None, 8)                       136         
 dropout (Dropout)                  (None, 8)                       0           
 dense (Dense)                      (None, 1)                       9           
================================================================================
Total params: 1777 (6.94 KB)
Trainable params: 1777 (6.94 KB)
Non-trainable params: 0 (0.00 Byte)
________________________________________________________________________________";"mse";"<keras.src.optimizers.rmsprop.RMSprop object at 0x7f9e5a5c40d0>";0,00100000004749745;"Experiment.R";2024-03-14 13:14:20.63453;2024-03-14 13:14:26.69357;TRUE;"
…
+     epochs = 50, batch_size = FLAGS$batch_size, validation_split = 0.2, 
+     callbacks = lis .... [TRUNCATED] ";"runs/2024-03-14T13-14-20Z/tfruns.d/source.tar.gz";"local";"training"
"runs/2024-03-14T13-14-13Z";16,1209;3,0894;17,9564;3,2792;64;32;8;8;0,2;0,3;0,2;0,1;64;50;44;"runs/2024-03-14T13-14-13Z/tfruns.d/metrics.json";"Model: ""sequential""
________________________________________________________________________________
 Layer (type)                       Output Shape                    Param #     
================================================================================
 dense_4 (Dense)                    (None, 64)                      1664        
 dropout_3 (Dropout)                (None, 64)                      0           
 dense_3 (Dense)                    (None, 32)                      2080        
 dropout_2 (Dropout)                (None, 32)                      0           
 dense_2 (Dense)                    (None, 8)                       264         
 dropout_1 (Dropout)                (None, 8)                       0           
 dense_1 (Dense)                    (None, 8)                       72          
 dropout (Dropout)                  (None, 8)                       0           
 dense (Dense)                      (None, 1)                       9           
================================================================================
Total params: 4089 (15.97 KB)
Trainable params: 4089 (15.97 KB)
Non-trainable params: 0 (0.00 Byte)
________________________________________________________________________________";"mse";"<keras.src.optimizers.rmsprop.RMSprop object at 0x7f9e3c19fa60>";0,00100000004749745;"Experiment.R";2024-03-14 13:14:13.94353;2024-03-14 13:14:20.11106;TRUE;"
…
+     epochs = 50, batch_size = FLAGS$batch_size, validation_split = 0.2, 
+     callbacks = lis .... [TRUNCATED] ";"runs/2024-03-14T13-14-13Z/tfruns.d/source.tar.gz";"local";"training"
"runs/2024-03-14T13-14-05Z";17,9628;3,3303;14,8753;2,8935;32;32;8;8;0,2;0,3;0,2;0,1;64;50;50;"runs/2024-03-14T13-14-05Z/tfruns.d/metrics.json";"Model: ""sequential""
________________________________________________________________________________
 Layer (type)                       Output Shape                    Param #     
================================================================================
 dense_4 (Dense)                    (None, 32)                      832         
 dropout_3 (Dropout)                (None, 32)                      0           
 dense_3 (Dense)                    (None, 32)                      1056        
 dropout_2 (Dropout)                (None, 32)                      0           
 dense_2 (Dense)                    (None, 8)                       264         
 dropout_1 (Dropout)                (None, 8)                       0           
 dense_1 (Dense)                    (None, 8)                       72          
 dropout (Dropout)                  (None, 8)                       0           
 dense (Dense)                      (None, 1)                       9           
================================================================================
Total params: 2233 (8.72 KB)
Trainable params: 2233 (8.72 KB)
Non-trainable params: 0 (0.00 Byte)
________________________________________________________________________________";"mse";"<keras.src.optimizers.rmsprop.RMSprop object at 0x7f9e3b58f190>";0,00100000004749745;"Experiment.R";2024-03-14 13:14:05.96108;2024-03-14 13:14:13.09208;TRUE;"
…
+     epochs = 50, batch_size = FLAGS$batch_size, validation_split = 0.2, 
+     callbacks = lis .... [TRUNCATED] ";"runs/2024-03-14T13-14-05Z/tfruns.d/source.tar.gz";"local";"training"
"runs/2024-03-14T13-13-58Z";19,2013;3,4111;19,4844;3,507;64;16;8;8;0,2;0,3;0,2;0,1;64;50;40;"runs/2024-03-14T13-13-58Z/tfruns.d/metrics.json";"Model: ""sequential""
________________________________________________________________________________
 Layer (type)                       Output Shape                    Param #     
================================================================================
 dense_4 (Dense)                    (None, 64)                      1664        
 dropout_3 (Dropout)                (None, 64)                      0           
 dense_3 (Dense)                    (None, 16)                      1040        
 dropout_2 (Dropout)                (None, 16)                      0           
 dense_2 (Dense)                    (None, 8)                       136         
 dropout_1 (Dropout)                (None, 8)                       0           
 dense_1 (Dense)                    (None, 8)                       72          
 dropout (Dropout)                  (None, 8)                       0           
 dense (Dense)                      (None, 1)                       9           
================================================================================
Total params: 2921 (11.41 KB)
Trainable params: 2921 (11.41 KB)
Non-trainable params: 0 (0.00 Byte)
________________________________________________________________________________";"mse";"<keras.src.optimizers.rmsprop.RMSprop object at 0x7f9e39ca00a0>";0,00100000004749745;"Experiment.R";2024-03-14 13:13:58.88233;2024-03-14 13:14:05.46615;TRUE;"
…
+     epochs = 50, batch_size = FLAGS$batch_size, validation_split = 0.2, 
+     callbacks = lis .... [TRUNCATED] ";"runs/2024-03-14T13-13-58Z/tfruns.d/source.tar.gz";"local";"training"
"runs/2024-03-14T13-13-52Z";18,6112;3,3728;18,2592;3,3604;32;16;8;8;0,2;0,3;0,2;0,1;64;50;35;"runs/2024-03-14T13-13-52Z/tfruns.d/metrics.json";"Model: ""sequential""
________________________________________________________________________________
 Layer (type)                       Output Shape                    Param #     
================================================================================
 dense_4 (Dense)                    (None, 32)                      832         
 dropout_3 (Dropout)                (None, 32)                      0           
 dense_3 (Dense)                    (None, 16)                      528         
 dropout_2 (Dropout)                (None, 16)                      0           
 dense_2 (Dense)                    (None, 8)                       136         
 dropout_1 (Dropout)                (None, 8)                       0           
 dense_1 (Dense)                    (None, 8)                       72          
 dropout (Dropout)                  (None, 8)                       0           
 dense (Dense)                      (None, 1)                       9           
================================================================================
Total params: 1577 (6.16 KB)
Trainable params: 1577 (6.16 KB)
Non-trainable params: 0 (0.00 Byte)
________________________________________________________________________________";"mse";"<keras.src.optimizers.rmsprop.RMSprop object at 0x7f9e39c85780>";0,00100000004749745;"Experiment.R";2024-03-14 13:13:53.11392;2024-03-14 13:13:58.3875;TRUE;"
…
+     epochs = 50, batch_size = FLAGS$batch_size, validation_split = 0.2, 
+     callbacks = lis .... [TRUNCATED] ";"runs/2024-03-14T13-13-52Z/tfruns.d/source.tar.gz";"local";"training"
"runs/2024-03-14T13-13-44Z";16,9174;3,1653;13,8278;2,8844;64;32;16;4;0,2;0,3;0,2;0,1;64;50;50;"runs/2024-03-14T13-13-44Z/tfruns.d/metrics.json";"Model: ""sequential""
________________________________________________________________________________
 Layer (type)                       Output Shape                    Param #     
================================================================================
 dense_4 (Dense)                    (None, 64)                      1664        
 dropout_3 (Dropout)                (None, 64)                      0           
 dense_3 (Dense)                    (None, 32)                      2080        
 dropout_2 (Dropout)                (None, 32)                      0           
 dense_2 (Dense)                    (None, 16)                      528         
 dropout_1 (Dropout)                (None, 16)                      0           
 dense_1 (Dense)                    (None, 4)                       68          
 dropout (Dropout)                  (None, 4)                       0           
 dense (Dense)                      (None, 1)                       5           
================================================================================
Total params: 4345 (16.97 KB)
Trainable params: 4345 (16.97 KB)
Non-trainable params: 0 (0.00 Byte)
________________________________________________________________________________";"mse";"<keras.src.optimizers.rmsprop.RMSprop object at 0x7f9e393ac580>";0,00100000004749745;"Experiment.R";2024-03-14 13:13:45.07305;2024-03-14 13:13:52.5876;TRUE;"
…
+     epochs = 50, batch_size = FLAGS$batch_size, validation_split = 0.2, 
+     callbacks = lis .... [TRUNCATED] ";"runs/2024-03-14T13-13-44Z/tfruns.d/source.tar.gz";"local";"training"
"runs/2024-03-14T13-13-37Z";16,5645;3,16;15,835;3,1065;32;32;16;4;0,2;0,3;0,2;0,1;64;50;50;"runs/2024-03-14T13-13-37Z/tfruns.d/metrics.json";"Model: ""sequential""
________________________________________________________________________________
 Layer (type)                       Output Shape                    Param #     
================================================================================
 dense_4 (Dense)                    (None, 32)                      832         
 dropout_3 (Dropout)                (None, 32)                      0           
 dense_3 (Dense)                    (None, 32)                      1056        
 dropout_2 (Dropout)                (None, 32)                      0           
 dense_2 (Dense)                    (None, 16)                      528         
 dropout_1 (Dropout)                (None, 16)                      0           
 dense_1 (Dense)                    (None, 4)                       68          
 dropout (Dropout)                  (None, 4)                       0           
 dense (Dense)                      (None, 1)                       5           
================================================================================
Total params: 2489 (9.72 KB)
Trainable params: 2489 (9.72 KB)
Non-trainable params: 0 (0.00 Byte)
________________________________________________________________________________";"mse";"<keras.src.optimizers.rmsprop.RMSprop object at 0x7f9e387a33a0>";0,00100000004749745;"Experiment.R";2024-03-14 13:13:37.85547;2024-03-14 13:13:44.55414;TRUE;"
…
+     epochs = 50, batch_size = FLAGS$batch_size, validation_split = 0.2, 
+     callbacks = lis .... [TRUNCATED] ";"runs/2024-03-14T13-13-37Z/tfruns.d/source.tar.gz";"local";"training"
"runs/2024-03-14T13-13-25Z";22,3992;3,6541;17,7691;3,3138;64;16;16;4;0,2;0,3;0,2;0,1;64;50;50;"runs/2024-03-14T13-13-25Z/tfruns.d/metrics.json";"Model: ""sequential""
________________________________________________________________________________
 Layer (type)                       Output Shape                    Param #     
================================================================================
 dense_4 (Dense)                    (None, 64)                      1664        
 dropout_3 (Dropout)                (None, 64)                      0           
 dense_3 (Dense)                    (None, 16)                      1040        
 dropout_2 (Dropout)                (None, 16)                      0           
 dense_2 (Dense)                    (None, 16)                      272         
 dropout_1 (Dropout)                (None, 16)                      0           
 dense_1 (Dense)                    (None, 4)                       68          
 dropout (Dropout)                  (None, 4)                       0           
 dense (Dense)                      (None, 1)                       5           
================================================================================
Total params: 3049 (11.91 KB)
Trainable params: 3049 (11.91 KB)
Non-trainable params: 0 (0.00 Byte)
________________________________________________________________________________";"mse";"<keras.src.optimizers.rmsprop.RMSprop object at 0x7f9e379b0220>";0,00100000004749745;"Experiment.R";2024-03-14 13:13:25.67257;2024-03-14 13:13:37.36613;TRUE;"
…
+     epochs = 50, batch_size = FLAGS$batch_size, validation_split = 0.2, 
+     callbacks = lis .... [TRUNCATED] ";"runs/2024-03-14T13-13-25Z/tfruns.d/source.tar.gz";"local";"training"
"runs/2024-03-14T13-13-14Z";22,2308;3,5449;19,6246;3,5125;32;16;16;4;0,2;0,3;0,2;0,1;64;50;42;"runs/2024-03-14T13-13-14Z/tfruns.d/metrics.json";"Model: ""sequential""
________________________________________________________________________________
 Layer (type)                       Output Shape                    Param #     
================================================================================
 dense_4 (Dense)                    (None, 32)                      832         
 dropout_3 (Dropout)                (None, 32)                      0           
 dense_3 (Dense)                    (None, 16)                      528         
 dropout_2 (Dropout)                (None, 16)                      0           
 dense_2 (Dense)                    (None, 16)                      272         
 dropout_1 (Dropout)                (None, 16)                      0           
 dense_1 (Dense)                    (None, 4)                       68          
 dropout (Dropout)                  (None, 4)                       0           
 dense (Dense)                      (None, 1)                       5           
================================================================================
Total params: 1705 (6.66 KB)
Trainable params: 1705 (6.66 KB)
Non-trainable params: 0 (0.00 Byte)
________________________________________________________________________________";"mse";"<keras.src.optimizers.rmsprop.RMSprop object at 0x7f9e37280640>";0,00100000004749745;"Experiment.R";2024-03-14 13:13:14.74197;2024-03-14 13:13:25.17483;TRUE;"
…
+     epochs = 50, batch_size = FLAGS$batch_size, validation_split = 0.2, 
+     callbacks = lis .... [TRUNCATED] ";"runs/2024-03-14T13-13-14Z/tfruns.d/source.tar.gz";"local";"training"
"runs/2024-03-14T13-13-06Z";23,0623;3,6667;18,086;3,3427;64;32;8;4;0,2;0,3;0,2;0,1;64;50;46;"runs/2024-03-14T13-13-06Z/tfruns.d/metrics.json";"Model: ""sequential""
________________________________________________________________________________
 Layer (type)                       Output Shape                    Param #     
================================================================================
 dense_4 (Dense)                    (None, 64)                      1664        
 dropout_3 (Dropout)                (None, 64)                      0           
 dense_3 (Dense)                    (None, 32)                      2080        
 dropout_2 (Dropout)                (None, 32)                      0           
 dense_2 (Dense)                    (None, 8)                       264         
 dropout_1 (Dropout)                (None, 8)                       0           
 dense_1 (Dense)                    (None, 4)                       36          
 dropout (Dropout)                  (None, 4)                       0           
 dense (Dense)                      (None, 1)                       5           
================================================================================
Total params: 4049 (15.82 KB)
Trainable params: 4049 (15.82 KB)
Non-trainable params: 0 (0.00 Byte)
________________________________________________________________________________";"mse";"<keras.src.optimizers.rmsprop.RMSprop object at 0x7f9e598432e0>";0,00100000004749745;"Experiment.R";2024-03-14 13:13:07.21771;2024-03-14 13:13:14.23003;TRUE;"
…
+     epochs = 50, batch_size = FLAGS$batch_size, validation_split = 0.2, 
+     callbacks = lis .... [TRUNCATED] ";"runs/2024-03-14T13-13-06Z/tfruns.d/source.tar.gz";"local";"training"
"runs/2024-03-14T13-12-54Z";17,6858;3,2478;15,2319;3,0406;32;32;8;4;0,2;0,3;0,2;0,1;64;50;50;"runs/2024-03-14T13-12-54Z/tfruns.d/metrics.json";"Model: ""sequential""
________________________________________________________________________________
 Layer (type)                       Output Shape                    Param #     
================================================================================
 dense_4 (Dense)                    (None, 32)                      832         
 dropout_3 (Dropout)                (None, 32)                      0           
 dense_3 (Dense)                    (None, 32)                      1056        
 dropout_2 (Dropout)                (None, 32)                      0           
 dense_2 (Dense)                    (None, 8)                       264         
 dropout_1 (Dropout)                (None, 8)                       0           
 dense_1 (Dense)                    (None, 4)                       36          
 dropout (Dropout)                  (None, 4)                       0           
 dense (Dense)                      (None, 1)                       5           
================================================================================
Total params: 2193 (8.57 KB)
Trainable params: 2193 (8.57 KB)
Non-trainable params: 0 (0.00 Byte)
________________________________________________________________________________";"mse";"<keras.src.optimizers.rmsprop.RMSprop object at 0x7f9e3e0a3af0>";0,00100000004749745;"Experiment.R";2024-03-14 13:12:54.85433;2024-03-14 13:13:06.70844;TRUE;"
…
+     epochs = 50, batch_size = FLAGS$batch_size, validation_split = 0.2, 
+     callbacks = lis .... [TRUNCATED] ";"runs/2024-03-14T13-12-54Z/tfruns.d/source.tar.gz";"local";"training"
"runs/2024-03-14T13-12-48Z";24,8418;3,8473;18,5463;3,3945;64;16;8;4;0,2;0,3;0,2;0,1;64;50;40;"runs/2024-03-14T13-12-48Z/tfruns.d/metrics.json";"Model: ""sequential""
________________________________________________________________________________
 Layer (type)                       Output Shape                    Param #     
================================================================================
 dense_4 (Dense)                    (None, 64)                      1664        
 dropout_3 (Dropout)                (None, 64)                      0           
 dense_3 (Dense)                    (None, 16)                      1040        
 dropout_2 (Dropout)                (None, 16)                      0           
 dense_2 (Dense)                    (None, 8)                       136         
 dropout_1 (Dropout)                (None, 8)                       0           
 dense_1 (Dense)                    (None, 4)                       36          
 dropout (Dropout)                  (None, 4)                       0           
 dense (Dense)                      (None, 1)                       5           
================================================================================
Total params: 2881 (11.25 KB)
Trainable params: 2881 (11.25 KB)
Non-trainable params: 0 (0.00 Byte)
________________________________________________________________________________";"mse";"<keras.src.optimizers.rmsprop.RMSprop object at 0x7f9e3fdb6ef0>";0,00100000004749745;"Experiment.R";2024-03-14 13:12:48.55839;2024-03-14 13:12:54.35561;TRUE;"
…
+     epochs = 50, batch_size = FLAGS$batch_size, validation_split = 0.2, 
+     callbacks = lis .... [TRUNCATED] ";"runs/2024-03-14T13-12-48Z/tfruns.d/source.tar.gz";"local";"training"
"runs/2024-03-14T13-12-41Z";21,9763;3,656;16,1872;3,1297;32;16;8;4;0,2;0,3;0,2;0,1;64;50;38;"runs/2024-03-14T13-12-41Z/tfruns.d/metrics.json";"Model: ""sequential""
________________________________________________________________________________
 Layer (type)                       Output Shape                    Param #     
================================================================================
 dense_4 (Dense)                    (None, 32)                      832         
 dropout_3 (Dropout)                (None, 32)                      0           
 dense_3 (Dense)                    (None, 16)                      528         
 dropout_2 (Dropout)                (None, 16)                      0           
 dense_2 (Dense)                    (None, 8)                       136         
 dropout_1 (Dropout)                (None, 8)                       0           
 dense_1 (Dense)                    (None, 4)                       36          
 dropout (Dropout)                  (None, 4)                       0           
 dense (Dense)                      (None, 1)                       5           
================================================================================
Total params: 1537 (6.00 KB)
Trainable params: 1537 (6.00 KB)
Non-trainable params: 0 (0.00 Byte)
________________________________________________________________________________";"mse";"<keras.src.optimizers.rmsprop.RMSprop object at 0x7f9e3f368d60>";0,00100000004749745;"Experiment.R";2024-03-14 13:12:41.81844;2024-03-14 13:12:48.03702;TRUE;"
…
