…
"epochs_completed";"metrics";"model";"loss_function";"optimizer";"learning_rate";"script";"start";"end";"completed";"output";"source_code";"context";"type"
"runs/2024-03-14T15-11-09Z";4,7239;1,6467;7,3597;2,2014;64;32;16;8;0,2;0,3;0,2;0,1;64;50;46;"runs/2024-03-14T15-11-09Z/tfruns.d/metrics.json";"Model: ""sequential""
________________________________________________________________________________
 Layer (type)                       Output Shape                    Param #     
================================================================================
 dense_4 (Dense)                    (None, 64)                      1664        
 dropout_3 (Dropout)                (None, 64)                      0           
 dense_3 (Dense)                    (None, 32)                      2080        
 dropout_2 (Dropout)                (None, 32)                      0           
 dense_2 (Dense)                    (None, 16)                      528         
 dropout_1 (Dropout)                (None, 16)                      0           
 dense_1 (Dense)                    (None, 8)                       136         
 dropout (Dropout)                  (None, 8)                       0           
 dense (Dense)                      (None, 1)                       9           
================================================================================
Total params: 4417 (17.25 KB)
Trainable params: 4417 (17.25 KB)
Non-trainable params: 0 (0.00 Byte)
________________________________________________________________________________";"mse";"<keras.src.optimizers.rmsprop.RMSprop object at 0x7f9dfa7c7d90>";0,00100000004749745;"Experiment.R";2024-03-14 15:11:10.43462;2024-03-14 15:11:23.90128;TRUE;"
…
+     epochs = 50, batch_size = FLAGS$batch_size, validation_split = 0.2, 
+     callbacks = lis .... [TRUNCATED] ";"runs/2024-03-14T15-11-09Z/tfruns.d/source.tar.gz";"local";"training"
"runs/2024-03-14T15-11-01Z";5,2694;1,7574;8,4083;2,351;32;32;16;8;0,2;0,3;0,2;0,1;64;50;25;"runs/2024-03-14T15-11-01Z/tfruns.d/metrics.json";"Model: ""sequential""
________________________________________________________________________________
 Layer (type)                       Output Shape                    Param #     
================================================================================
 dense_4 (Dense)                    (None, 32)                      832         
 dropout_3 (Dropout)                (None, 32)                      0           
 dense_3 (Dense)                    (None, 32)                      1056        
 dropout_2 (Dropout)                (None, 32)                      0           
 dense_2 (Dense)                    (None, 16)                      528         
 dropout_1 (Dropout)                (None, 16)                      0           
 dense_1 (Dense)                    (None, 8)                       136         
 dropout (Dropout)                  (None, 8)                       0           
 dense (Dense)                      (None, 1)                       9           
================================================================================
Total params: 2561 (10.00 KB)
Trainable params: 2561 (10.00 KB)
Non-trainable params: 0 (0.00 Byte)
________________________________________________________________________________";"mse";"<keras.src.optimizers.rmsprop.RMSprop object at 0x7f9dfba49e70>";0,00100000004749745;"Experiment.R";2024-03-14 15:11:02.82614;2024-03-14 15:11:09.61772;TRUE;"
…
+     epochs = 50, batch_size = FLAGS$batch_size, validation_split = 0.2, 
+     callbacks = lis .... [TRUNCATED] ";"runs/2024-03-14T15-11-01Z/tfruns.d/source.tar.gz";"local";"training"
"runs/2024-03-14T15-10-53Z";5,0407;1,7212;9,0984;2,4383;64;16;16;8;0,2;0,3;0,2;0,1;64;50;30;"runs/2024-03-14T15-10-53Z/tfruns.d/metrics.json";"Model: ""sequential""
________________________________________________________________________________
 Layer (type)                       Output Shape                    Param #     
================================================================================
 dense_4 (Dense)                    (None, 64)                      1664        
 dropout_3 (Dropout)                (None, 64)                      0           
 dense_3 (Dense)                    (None, 16)                      1040        
 dropout_2 (Dropout)                (None, 16)                      0           
 dense_2 (Dense)                    (None, 16)                      272         
 dropout_1 (Dropout)                (None, 16)                      0           
 dense_1 (Dense)                    (None, 8)                       136         
 dropout (Dropout)                  (None, 8)                       0           
 dense (Dense)                      (None, 1)                       9           
================================================================================
Total params: 3121 (12.19 KB)
Trainable params: 3121 (12.19 KB)
Non-trainable params: 0 (0.00 Byte)
________________________________________________________________________________";"mse";"<keras.src.optimizers.rmsprop.RMSprop object at 0x7f9dfa07cfa0>";0,00100000004749745;"Experiment.R";2024-03-14 15:10:54.95397;2024-03-14 15:11:01.7906;TRUE;"
…
+     epochs = 50, batch_size = FLAGS$batch_size, validation_split = 0.2, 
+     callbacks = lis .... [TRUNCATED] ";"runs/2024-03-14T15-10-53Z/tfruns.d/source.tar.gz";"local";"training"
"runs/2024-03-14T15-10-41Z";5,1887;1,754;8,3704;2,362;32;16;16;8;0,2;0,3;0,2;0,1;64;50;33;"runs/2024-03-14T15-10-41Z/tfruns.d/metrics.json";"Model: ""sequential""
________________________________________________________________________________
 Layer (type)                       Output Shape                    Param #     
================================================================================
 dense_4 (Dense)                    (None, 32)                      832         
 dropout_3 (Dropout)                (None, 32)                      0           
 dense_3 (Dense)                    (None, 16)                      528         
 dropout_2 (Dropout)                (None, 16)                      0           
 dense_2 (Dense)                    (None, 16)                      272         
 dropout_1 (Dropout)                (None, 16)                      0           
 dense_1 (Dense)                    (None, 8)                       136         
 dropout (Dropout)                  (None, 8)                       0           
 dense (Dense)                      (None, 1)                       9           
================================================================================
Total params: 1777 (6.94 KB)
Trainable params: 1777 (6.94 KB)
Non-trainable params: 0 (0.00 Byte)
________________________________________________________________________________";"mse";"<keras.src.optimizers.rmsprop.RMSprop object at 0x7f9dfbf1a0b0>";0,00100000004749745;"Experiment.R";2024-03-14 15:10:42.65305;2024-03-14 15:10:53.51548;TRUE;"
…
+     epochs = 50, batch_size = FLAGS$batch_size, validation_split = 0.2, 
+     callbacks = lis .... [TRUNCATED] ";"runs/2024-03-14T15-10-41Z/tfruns.d/source.tar.gz";"local";"training"
"runs/2024-03-14T15-10-34Z";5,5488;1,7906;8,2584;2,3367;64;32;8;8;0,2;0,3;0,2;0,1;64;50;25;"runs/2024-03-14T15-10-34Z/tfruns.d/metrics.json";"Model: ""sequential""
________________________________________________________________________________
 Layer (type)                       Output Shape                    Param #     
================================================================================
 dense_4 (Dense)                    (None, 64)                      1664        
 dropout_3 (Dropout)                (None, 64)                      0           
 dense_3 (Dense)                    (None, 32)                      2080        
 dropout_2 (Dropout)                (None, 32)                      0           
 dense_2 (Dense)                    (None, 8)                       264         
 dropout_1 (Dropout)                (None, 8)                       0           
 dense_1 (Dense)                    (None, 8)                       72          
 dropout (Dropout)                  (None, 8)                       0           
 dense (Dense)                      (None, 1)                       9           
================================================================================
Total params: 4089 (15.97 KB)
Trainable params: 4089 (15.97 KB)
Non-trainable params: 0 (0.00 Byte)
________________________________________________________________________________";"mse";"<keras.src.optimizers.rmsprop.RMSprop object at 0x7f9dfbed6b30>";0,00100000004749745;"Experiment.R";2024-03-14 15:10:35.55039;2024-03-14 15:10:41.23786;TRUE;"
…
+     epochs = 50, batch_size = FLAGS$batch_size, validation_split = 0.2, 
+     callbacks = lis .... [TRUNCATED] ";"runs/2024-03-14T15-10-34Z/tfruns.d/source.tar.gz";"local";"training"
"runs/2024-03-14T15-10-26Z";5,7041;1,7977;8,8104;2,408;32;32;8;8;0,2;0,3;0,2;0,1;64;50;30;"runs/2024-03-14T15-10-26Z/tfruns.d/metrics.json";"Model: ""sequential""
________________________________________________________________________________
 Layer (type)                       Output Shape                    Param #     
================================================================================
 dense_4 (Dense)                    (None, 32)                      832         
 dropout_3 (Dropout)                (None, 32)                      0           
 dense_3 (Dense)                    (None, 32)                      1056        
 dropout_2 (Dropout)                (None, 32)                      0           
 dense_2 (Dense)                    (None, 8)                       264         
 dropout_1 (Dropout)                (None, 8)                       0           
 dense_1 (Dense)                    (None, 8)                       72          
 dropout (Dropout)                  (None, 8)                       0           
 dense (Dense)                      (None, 1)                       9           
================================================================================
Total params: 2233 (8.72 KB)
Trainable params: 2233 (8.72 KB)
Non-trainable params: 0 (0.00 Byte)
________________________________________________________________________________";"mse";"<keras.src.optimizers.rmsprop.RMSprop object at 0x7f9dfc0ebcd0>";0,00100000004749745;"Experiment.R";2024-03-14 15:10:27.60794;2024-03-14 15:10:34.77266;TRUE;"
…
+     epochs = 50, batch_size = FLAGS$batch_size, validation_split = 0.2, 
+     callbacks = lis .... [TRUNCATED] ";"runs/2024-03-14T15-10-26Z/tfruns.d/source.tar.gz";"local";"training"
"runs/2024-03-14T15-10-16Z";5,2129;1,7438;8,0718;2,3008;64;16;8;8;0,2;0,3;0,2;0,1;64;50;34;"runs/2024-03-14T15-10-16Z/tfruns.d/metrics.json";"Model: ""sequential""
________________________________________________________________________________
 Layer (type)                       Output Shape                    Param #     
================================================================================
 dense_4 (Dense)                    (None, 64)                      1664        
 dropout_3 (Dropout)                (None, 64)                      0           
 dense_3 (Dense)                    (None, 16)                      1040        
 dropout_2 (Dropout)                (None, 16)                      0           
 dense_2 (Dense)                    (None, 8)                       136         
 dropout_1 (Dropout)                (None, 8)                       0           
 dense_1 (Dense)                    (None, 8)                       72          
 dropout (Dropout)                  (None, 8)                       0           
 dense (Dense)                      (None, 1)                       9           
================================================================================
Total params: 2921 (11.41 KB)
Trainable params: 2921 (11.41 KB)
Non-trainable params: 0 (0.00 Byte)
________________________________________________________________________________";"mse";"<keras.src.optimizers.rmsprop.RMSprop object at 0x7f9dfc1865f0>";0,00100000004749745;"Experiment.R";2024-03-14 15:10:18.05536;2024-03-14 15:10:26.80607;TRUE;"
…
+     epochs = 50, batch_size = FLAGS$batch_size, validation_split = 0.2, 
+     callbacks = lis .... [TRUNCATED] ";"runs/2024-03-14T15-10-16Z/tfruns.d/source.tar.gz";"local";"training"
"runs/2024-03-14T15-10-02Z";5,5682;1,8066;8,4026;2,3508;32;16;8;8;0,2;0,3;0,2;0,1;64;50;38;"runs/2024-03-14T15-10-02Z/tfruns.d/metrics.json";"Model: ""sequential""
________________________________________________________________________________
 Layer (type)                       Output Shape                    Param #     
================================================================================
 dense_4 (Dense)                    (None, 32)                      832         
 dropout_3 (Dropout)                (None, 32)                      0           
 dense_3 (Dense)                    (None, 16)                      528         
 dropout_2 (Dropout)                (None, 16)                      0           
 dense_2 (Dense)                    (None, 8)                       136         
 dropout_1 (Dropout)                (None, 8)                       0           
 dense_1 (Dense)                    (None, 8)                       72          
 dropout (Dropout)                  (None, 8)                       0           
 dense (Dense)                      (None, 1)                       9           
================================================================================
Total params: 1577 (6.16 KB)
Trainable params: 1577 (6.16 KB)
Non-trainable params: 0 (0.00 Byte)
________________________________________________________________________________";"mse";"<keras.src.optimizers.rmsprop.RMSprop object at 0x7f9dfa1b2200>";0,00100000004749745;"Experiment.R";2024-03-14 15:10:03.65254;2024-03-14 15:10:16.68092;TRUE;"
…
+     epochs = 50, batch_size = FLAGS$batch_size, validation_split = 0.2, 
+     callbacks = lis .... [TRUNCATED] ";"runs/2024-03-14T15-10-02Z/tfruns.d/source.tar.gz";"local";"training"
"runs/2024-03-14T15-09-56Z";5,9498;1,8319;7,6369;2,2522;64;32;16;4;0,2;0,3;0,2;0,1;64;50;24;"runs/2024-03-14T15-09-56Z/tfruns.d/metrics.json";"Model: ""sequential""
________________________________________________________________________________
 Layer (type)                       Output Shape                    Param #     
================================================================================
 dense_4 (Dense)                    (None, 64)                      1664        
 dropout_3 (Dropout)                (None, 64)                      0           
 dense_3 (Dense)                    (None, 32)                      2080        
 dropout_2 (Dropout)                (None, 32)                      0           
 dense_2 (Dense)                    (None, 16)                      528         
 dropout_1 (Dropout)                (None, 16)                      0           
 dense_1 (Dense)                    (None, 4)                       68          
 dropout (Dropout)                  (None, 4)                       0           
 dense (Dense)                      (None, 1)                       5           
================================================================================
Total params: 4345 (16.97 KB)
Trainable params: 4345 (16.97 KB)
Non-trainable params: 0 (0.00 Byte)
________________________________________________________________________________";"mse";"<keras.src.optimizers.rmsprop.RMSprop object at 0x7f9dfc59ea10>";0,00100000004749745;"Experiment.R";2024-03-14 15:09:57.4204;2024-03-14 15:10:02.84071;TRUE;"
…
+     epochs = 50, batch_size = FLAGS$batch_size, validation_split = 0.2, 
+     callbacks = lis .... [TRUNCATED] ";"runs/2024-03-14T15-09-56Z/tfruns.d/source.tar.gz";"local";"training"
"runs/2024-03-14T15-09-45Z";5,6699;1,7949;7,1066;2,1814;32;32;16;4;0,2;0,3;0,2;0,1;64;50;50;"runs/2024-03-14T15-09-45Z/tfruns.d/metrics.json";"Model: ""sequential""
________________________________________________________________________________
 Layer (type)                       Output Shape                    Param #     
================================================================================
 dense_4 (Dense)                    (None, 32)                      832         
 dropout_3 (Dropout)                (None, 32)                      0           
 dense_3 (Dense)                    (None, 32)                      1056        
 dropout_2 (Dropout)                (None, 32)                      0           
 dense_2 (Dense)                    (None, 16)                      528         
 dropout_1 (Dropout)                (None, 16)                      0           
 dense_1 (Dense)                    (None, 4)                       68          
 dropout (Dropout)                  (None, 4)                       0           
 dense (Dense)                      (None, 1)                       5           
================================================================================
Total params: 2489 (9.72 KB)
Trainable params: 2489 (9.72 KB)
Non-trainable params: 0 (0.00 Byte)
________________________________________________________________________________";"mse";"<keras.src.optimizers.rmsprop.RMSprop object at 0x7f9dfc80d5d0>";0,00100000004749745;"Experiment.R";2024-03-14 15:09:46.60599;2024-03-14 15:09:56.6425;TRUE;"
…
+     epochs = 50, batch_size = FLAGS$batch_size, validation_split = 0.2, 
+     callbacks = lis .... [TRUNCATED] ";"runs/2024-03-14T15-09-45Z/tfruns.d/source.tar.gz";"local";"training"
"runs/2024-03-14T15-09-37Z";7,0281;1,9636;8,4442;2,3569;64;16;16;4;0,2;0,3;0,2;0,1;64;50;31;"runs/2024-03-14T15-09-37Z/tfruns.d/metrics.json";"Model: ""sequential""
________________________________________________________________________________
 Layer (type)                       Output Shape                    Param #     
================================================================================
 dense_4 (Dense)                    (None, 64)                      1664        
 dropout_3 (Dropout)                (None, 64)                      0           
 dense_3 (Dense)                    (None, 16)                      1040        
 dropout_2 (Dropout)                (None, 16)                      0           
 dense_2 (Dense)                    (None, 16)                      272         
 dropout_1 (Dropout)                (None, 16)                      0           
 dense_1 (Dense)                    (None, 4)                       68          
 dropout (Dropout)                  (None, 4)                       0           
 dense (Dense)                      (None, 1)                       5           
================================================================================
Total params: 3049 (11.91 KB)
Trainable params: 3049 (11.91 KB)
Non-trainable params: 0 (0.00 Byte)
________________________________________________________________________________";"mse";"<keras.src.optimizers.rmsprop.RMSprop object at 0x7f9dfca06770>";0,00100000004749745;"Experiment.R";2024-03-14 15:09:38.51951;2024-03-14 15:09:45.81296;TRUE;"
…
+     epochs = 50, batch_size = FLAGS$batch_size, validation_split = 0.2, 
+     callbacks = lis .... [TRUNCATED] ";"runs/2024-03-14T15-09-37Z/tfruns.d/source.tar.gz";"local";"training"
"runs/2024-03-14T15-09-27Z";19,1395;3,5444;22,0068;3,8582;32;16;16;4;0,2;0,3;0,2;0,1;64;50;50;"runs/2024-03-14T15-09-27Z/tfruns.d/metrics.json";"Model: ""sequential""
________________________________________________________________________________
 Layer (type)                       Output Shape                    Param #     
================================================================================
 dense_4 (Dense)                    (None, 32)                      832         
 dropout_3 (Dropout)                (None, 32)                      0           
 dense_3 (Dense)                    (None, 16)                      528         
 dropout_2 (Dropout)                (None, 16)                      0           
 dense_2 (Dense)                    (None, 16)                      272         
 dropout_1 (Dropout)                (None, 16)                      0           
 dense_1 (Dense)                    (None, 4)                       68          
 dropout (Dropout)                  (None, 4)                       0           
 dense (Dense)                      (None, 1)                       5           
================================================================================
Total params: 1705 (6.66 KB)
Trainable params: 1705 (6.66 KB)
Non-trainable params: 0 (0.00 Byte)
________________________________________________________________________________";"mse";"<keras.src.optimizers.rmsprop.RMSprop object at 0x7f9dfce74b50>";0,00100000004749745;"Experiment.R";2024-03-14 15:09:28.42269;2024-03-14 15:09:37.57593;TRUE;"
…
+     epochs = 50, batch_size = FLAGS$batch_size, validation_split = 0.2, 
+     callbacks = lis .... [TRUNCATED] ";"runs/2024-03-14T15-09-27Z/tfruns.d/source.tar.gz";"local";"training"
"runs/2024-03-14T15-09-12Z";6,4829;1,892;8,2119;2,3346;64;32;8;4;0,2;0,3;0,2;0,1;64;50;50;"runs/2024-03-14T15-09-12Z/tfruns.d/metrics.json";"Model: ""sequential""
________________________________________________________________________________
 Layer (type)                       Output Shape                    Param #     
================================================================================
 dense_4 (Dense)                    (None, 64)                      1664        
 dropout_3 (Dropout)                (None, 64)                      0           
 dense_3 (Dense)                    (None, 32)                      2080        
 dropout_2 (Dropout)                (None, 32)                      0           
 dense_2 (Dense)                    (None, 8)                       264         
 dropout_1 (Dropout)                (None, 8)                       0           
 dense_1 (Dense)                    (None, 4)                       36          
 dropout (Dropout)                  (None, 4)                       0           
 dense (Dense)                      (None, 1)                       5           
================================================================================
Total params: 4049 (15.82 KB)
Trainable params: 4049 (15.82 KB)
Non-trainable params: 0 (0.00 Byte)
________________________________________________________________________________";"mse";"<keras.src.optimizers.rmsprop.RMSprop object at 0x7f9dfd9d5f00>";0,00100000004749745;"Experiment.R";2024-03-14 15:09:13.92139;2024-03-14 15:09:27.25781;TRUE;"
…
+     epochs = 50, batch_size = FLAGS$batch_size, validation_split = 0.2, 
+     callbacks = lis .... [TRUNCATED] ";"runs/2024-03-14T15-09-12Z/tfruns.d/source.tar.gz";"local";"training"
"runs/2024-03-14T15-09-06Z";7,0832;2,0096;7,7576;2,2706;32;32;8;4;0,2;0,3;0,2;0,1;64;50;20;"runs/2024-03-14T15-09-06Z/tfruns.d/metrics.json";"Model: ""sequential""
________________________________________________________________________________
 Layer (type)                       Output Shape                    Param #     
================================================================================
 dense_4 (Dense)                    (None, 32)                      832         
 dropout_3 (Dropout)                (None, 32)                      0           
 dense_3 (Dense)                    (None, 32)                      1056        
 dropout_2 (Dropout)                (None, 32)                      0           
 dense_2 (Dense)                    (None, 8)                       264         
 dropout_1 (Dropout)                (None, 8)                       0           
 dense_1 (Dense)                    (None, 4)                       36          
 dropout (Dropout)                  (None, 4)                       0           
 dense (Dense)                      (None, 1)                       5           
================================================================================
Total params: 2193 (8.57 KB)
Trainable params: 2193 (8.57 KB)
Non-trainable params: 0 (0.00 Byte)
________________________________________________________________________________";"mse";"<keras.src.optimizers.rmsprop.RMSprop object at 0x7f9dfdbef340>";0,00100000004749745;"Experiment.R";2024-03-14 15:09:06.90003;2024-03-14 15:09:12.63395;TRUE;"
…
+     epochs = 50, batch_size = FLAGS$batch_size, validation_split = 0.2, 
+     callbacks = lis .... [TRUNCATED] ";"runs/2024-03-14T15-09-06Z/tfruns.d/source.tar.gz";"local";"training"
"runs/2024-03-14T15-08-55Z";5,2571;1,7374;7,4966;2,2387;64;16;8;4;0,2;0,3;0,2;0,1;64;50;48;"runs/2024-03-14T15-08-55Z/tfruns.d/metrics.json";"Model: ""sequential""
________________________________________________________________________________
 Layer (type)                       Output Shape                    Param #     
================================================================================
 dense_4 (Dense)                    (None, 64)                      1664        
 dropout_3 (Dropout)                (None, 64)                      0           
 dense_3 (Dense)                    (None, 16)                      1040        
 dropout_2 (Dropout)                (None, 16)                      0           
 dense_2 (Dense)                    (None, 8)                       136         
 dropout_1 (Dropout)                (None, 8)                       0           
 dense_1 (Dense)                    (None, 4)                       36          
 dropout (Dropout)                  (None, 4)                       0           
 dense (Dense)                      (None, 1)                       5           
================================================================================
Total params: 2881 (11.25 KB)
Trainable params: 2881 (11.25 KB)
Non-trainable params: 0 (0.00 Byte)
________________________________________________________________________________";"mse";"<keras.src.optimizers.rmsprop.RMSprop object at 0x7f9dfde21240>";0,00100000004749745;"Experiment.R";2024-03-14 15:08:56.51447;2024-03-14 15:09:06.13721;TRUE;"
…
+     epochs = 50, batch_size = FLAGS$batch_size, validation_split = 0.2, 
+     callbacks = lis .... [TRUNCATED] ";"runs/2024-03-14T15-08-55Z/tfruns.d/source.tar.gz";"local";"training"
"runs/2024-03-14T15-08-50Z";6,5448;1,9361;7,9013;2,2845;32;16;8;4;0,2;0,3;0,2;0,1;64;50;20;"runs/2024-03-14T15-08-50Z/tfruns.d/metrics.json";"Model: ""sequential""
________________________________________________________________________________
 Layer (type)                       Output Shape                    Param #     
================================================================================
 dense_4 (Dense)                    (None, 32)                      832         
 dropout_3 (Dropout)                (None, 32)                      0           
 dense_3 (Dense)                    (None, 16)                      528         
 dropout_2 (Dropout)                (None, 16)                      0           
 dense_2 (Dense)                    (None, 8)                       136         
 dropout_1 (Dropout)                (None, 8)                       0           
 dense_1 (Dense)                    (None, 4)                       36          
 dropout (Dropout)                  (None, 4)                       0           
 dense (Dense)                      (None, 1)                       5           
================================================================================
Total params: 1537 (6.00 KB)
Trainable params: 1537 (6.00 KB)
Non-trainable params: 0 (0.00 Byte)
________________________________________________________________________________";"mse";"<keras.src.optimizers.rmsprop.RMSprop object at 0x7f9dfe06a620>";0,00100000004749745;"Experiment.R";2024-03-14 15:08:50.91643;2024-03-14 15:08:55.70766;TRUE;"
…
